src/best_model.pt (torch, 89378 bytes, 35 tensors)

input_lin.weight f4 [64, 24]
00000000: 0792 3cbe d62c 06be caea 203e b99e 61bd
00000010: 7cc5 adbc 843c 9fbd 9351 013e b0a5 78be
00000020: 9b00 73be 3a33 cd3d 132f 053e 29a0 153e
00000030: 34b3 9ebd 88b3 ebbd adbe 01be 0186 10be
00000040: d5e5 68be 566d cb3d e090 eabd 0cac 81be
00000050: a702 293d c3e9 553e 3520 2ebc b494 59be
00000060: d05c 0e3e f90c 12be 765d 283e 2de5 37be
00000070: 306d 723e cd6e 81bd 8a95 753e 1496 fc3d
00000080: b2c7 463e 7183 423d dbaf 1bbe d809 e03c
00000090: 0966 5a3e 7484 68be bc51 933d a525 1d3d
000000a0: 672a 333e cc9c 37be 0f24 44be 1a25 903d
000000b0: c17b 97bd 93ab b7bd 5734 703d ecb2 533e
000000c0: d96c 48be 9aab 5bbc 3aff debd 82a4 03bd
000000d0: a7df e9bd b0b6 7e3e 07a0 143e 49c0 673d
000000e0: 72db 96bd ca73 253e 034c 14be 4d66 70be
000000f0: 9f5c 33be 5ee2 9dbd 571c 37be 2862 2a3e
00000100: 3e47 64bc 1b6b c8bd 2ea5 36be f3da 693e
00000110: 150e 763e 44aa 20be e04c 5e3e a8f2 bfbc
00000120: 1ea5 c5bd da13 c73d ca1d 51be 7f9a 74be
00000130: 0906 b1bc 2a46 303e e4fd 413e e17b 643e
00000140: e203 0a3e ab0d 863d a0a0 163d 071c 21be
00000150: ebc8 5a3e 75d9 5c3e 9976 66be b4f9 7dbe
00000160: 7981 81bd bb48 2bbe 28d7 bbbd 6764 683e
00000170: 89e5 52bd 73ba 713e aab7 babc 83c6 ad3c
00000180: e3b9 2ebc 26a2 9ebd f38c 33bd 363e fbbd
00000190: 86ef 40be a49c 9c3c 920d 653d eefb 713d
000001a0: ee89 7b3d 8691 c6bd d65f 7fbe b73d 003e
000001b0: bca2 483d f378 7dbe ab6d 7d3e 4fc3 82bd
000001c0: 4b11 5cbe 0066 23be 296f 88bd 9a9e 52be
000001d0: 74bd 423d 69ac 0cbe 1cf1 10be 78d9 693e
000001e0: 037f b2bd 6759 06bc 2a98 19be 1ec0 fabc
000001f0: add9 28be 88f8 14be 128f 2fbe c077 c5bd
00000200: 32e8 773d c9e8 e93d 62be 1a3e d334 01be
00000210: 61f5 47be be73 1ebd fee3 783e 4bd6 fe3b
00000220: c252 793e 9e07 4e3e 7938 343e be41 c5bc
00000230: 63c8 2a3d f724 2fbe 8b62 2a3d ed3d be3d
00000240: 1fe6 28be 2b71 3bbe 4339 07be d2ab 403b
00000250: 09c5 42bd 41f5 d33d 15dd 05be fca0 7a3e
00000260: b46f 00be 4736 233e 7308 6e3e fc1e 733e
00000270: da0d 02be eba8 0dbe d4ce e3bd e1b1 32be
00000280: 7105 8abd ab4c 9bbd 6b51 c33d 2ca1 673e
00000290: 7210 c53d aad1 303b 672b bdbd 0f8f 9dbd
000002a0: a779 623e 9396 66be 13a9 06bd 5e54 81be
000002b0: ec03 c1bd 80c6 45be bae5 81be 974a b43d
000002c0: 28fd 0abe f4ba 6b3d 95a5 6a3e 1ff4 32bd
000002d0: e69a c13d 59c3 dbbd 8647 2e3e c1d1 7e3e
000002e0: 5740 c7bd 23e7 50be ce9b 4c3e 34a9 3a3e
000002f0: f4f1 e93d c3af 853c e3fc a33d 8c54 733d
00000300: 60d8 163d c361 b4bd 03da 863d 9085 6c3e
00000310: e0b7 a7bd d81e 53be 0383 3fbe f4f9 e2bb
00000320: 2298 c53d 15e5 e03c 652a 763e a8eb 9c3d
00000330: 0881 ec3d b05e 70be be6d 1d3e 13b4 2f3e
00000340: 91e7 5f3d cbcc c53d e707 78be be6b 773e
00000350: a03c 9ebc 1a50 83be 111e bb3d 28f7 1c3e
00000360: ed4b 2c3e ffde 743e fb6b 2e3d dc59 193e
00000370: 6e87 823e dafd e83d 0a18 cd3d 2211 e5bc
00000380: e495 45be ba4d b43d 2b70 42be 3819 5f3b
00000390: 8fc3 7abe c3e0 80be 1eb8 eebd 5d0b 84be
000003a0: a112 1e3e 7ff1 833d 2883 93bd 8c14 753e
000003b0: 9c97 ed3d 6f74 243e 09a2 2ebe 7d3a 61be
000003c0: 7c72 c0bd 997f 2e3e 7ea7 66be 5adc 38be
000003d0: 743a 3f3c bd75 c23d b693 173e 606f 443d
000003e0: 14f6 1cbd 2ec0 cdbd d1f7 c2bb 9471 283e
000003f0: fe88 58be 02c9 76be 7396 d7bc 0483 593c
-0.1841508 -0.13103041 0.15714565 -0.05508301 -0.021212332 -0.07775214 0.12628774 -0.24281955
-0.237307 0.10019536 0.13006239 0.14611878 -0.07749024 -0.11508852 -0.12670393 -0.14113618
-0.22743924 0.099329636 -0.11453414 -0.25326574 0.041262295 0.20889954 -0.010627796 -0.21248132
0.13902593 -0.14262761 0.16441903 -0.17958517 0.23674464 -0.06319962 0.23982826 0.12333313
0.19412115 0.047488634 -0.15203802 0.027348444 0.21327986 -0.22706777 0.07193324 0.03836598
0.17496644 -0.17930907 -0.1915438 0.070383266 -0.07396651 -0.08968272 0.058643665 0.20673722
-0.19572772 -0.013407612 -0.10888524 -0.03213931 -0.114196114 0.24874377 0.1451417 0.05657986
-0.073660746 0.16157451 -0.14482121 -0.23476525 -0.17515801 -0.07709192 -0.17881905 0.16639006
-0.013933001 -0.09786054 -0.17836449 0.22837429 0.2402881 -0.15689951 0.21709013 -0.023431137
-0.09650634 0.09720583 -0.2042152 -0.2388706 -0.021609323 0.17214265 0.18944508 0.22312881
0.13478044 0.06545576 0.036774278 -0.15733348 0.21365707 0.21567328 -0.22506179 -0.24802285
-0.06323523 -0.16726963 -0.09171897 0.2269455 -0.051488433 0.23606281 -0.022792656 0.021212822
-0.010664436 -0.07745771 -0.04383559 -0.12267725 -0.18841371 0.01911766 0.055921145 0.05907815
0.061410837 -0.09695725 -0.24938902 0.12523542 0.04898332 -0.2475317 0.24748866 -0.063849084
-0.21490972 -0.15956879 -0.06661827 -0.20568314 0.047543958 -0.13737644 -0.14154476 0.22836864
-0.08715632 -0.008200026 -0.14999452 -0.030609187 -0.16489287 -0.14547932 -0.1714442 -0.09641981
0.060524173 0.11421353 0.15111688 -0.12617807 -0.19527198 -0.0386846 0.24305722 0.0077770106
0.24347976 0.20120093 0.17599668 -0.0240792 0.04169501 -0.17103945 0.041597884 0.09289155
-0.16494034 -0.18304889 -0.13205437 0.0029399288 -0.04755119 0.10349513 -0.13072617 0.24475473
-0.12542611 0.15938674 0.2324541 0.23742288 -0.12700596 -0.13833968 -0.11123434 -0.17450668
-0.06739319 -0.07582983 0.095370136 0.22620076 0.09622277 0.0026980438 -0.09236794 -0.07693302
0.22116719 -0.22518377 -0.032876085 -0.2525968 -0.09424576 -0.19314003 -0.2537058 0.088032894
-0.13573134 0.05755134 0.22914727 -0.043689843 0.09453373 -0.10730619 0.17019472 0.24884702
-0.09729069 -0.20400672 0.1998131 0.18228608 0.11423102 0.016319161 0.08007219 0.059406802
0.036827445 -0.08807709 0.06584551 0.23097825 -0.08189368 -0.20617235 -0.18702321 -0.0069267694
0.09648158 0.027452985 0.2403961 0.07662135 0.11548048 -0.2347362 0.15373895 0.17158537
0.0546642 0.09658202 -0.24221765 0.24162194 -0.019316018 -0.2564705 0.09136594 0.15328658
0.16825838 0.23913191 0.042583447 0.14975685 0.2549395 0.11376543 0.10014351 -0.027962271
-0.1929546 0.08803888 -0.18988101 0.003404213 -0.24488662 -0.2517148 -0.11656211 -0.2578992
0.15436794 0.06442546 -0.072027504 0.2393362 0.11601183 0.16060041 -0.17053999 -0.21994968
-0.09396836 0.17040862 -0.2252483 -0.18052807 0.011671651 0.09495113 0.14802441 0.047957778
-0.038320616 -0.10046421 -0.005949952 0.16449577 -0.21146008 -0.24100116 -0.026316857 0.013275865

input_lin.bias f4 [64]
00000000: 0000 0000 349f e9b8 81e5 f838 cdad 03b9
00000010: c61b dd38 5604 d038 2c9b dbb7 f0f3 dfb8
00000020: 1432 0239 5c22 de38 c47a f838 c47a f8b8
00000030: 0267 f738 fde1 3a39 e85e bcb8 081a cc38
00000040: 0000 0000 a023 2339 7b77 5138 54fc f8b8
00000050: 8a83 b438 206e dfb8 0267 f7b8 c61b ddb8
00000060: 732b df38 a4ed cfb8 0bc0 fcb8 5604 d038
00000070: c4b5 11b9 0000 0000 8a88 d2b8 de97 de38
00000080: 6c21 2db9 f2b1 ceb8 0000 0000 f2b1 ceb8
00000090: 0000 0000 a77d d3b8 5693 1739 e84e 1038
000000a0: 5402 c4b8 1617 f2b8 19fd f7b8 9bd2 bd38
000000b0: 9e6a 11b8 6d1a a8b8 2922 7c38 0a47 f5b8
000000c0: 50cb 69b8 95b0 f6b8 96a6 deb8 ae05 de38
000000d0: c47a f8b8 0000 0000 699b 4737 c61b dd38
000000e0: c930 ebb8 4c2d f8b8 0e93 cf38 cdc3 c838
000000f0: cfd2 deb8 c47a f838 0267 f738 4edb e238
0.0 -0.0001113996 0.0001186831 -0.0001255788 0.000105432744 9.9190205e-05 -2.6179092e-05 -0.000106789055
0.00012416422 0.00010592185 0.000118484284 -0.000118484284 0.000117970645 0.0001782253 -8.982216e-05 9.732327e-05
0.0 0.00015558163 4.9940758e-05 -0.00011872561 8.60757e-05 -0.00010653981 -0.000117970645 -0.000105432744
0.00010641562 -9.914793e-05 -0.00012052067 9.9190205e-05 -0.0001389599 0.0 -0.00010039013 0.000106140724
-0.00016511016 -9.85599e-05 0.0 -9.85599e-05 0.0 -0.000100846686 0.00014455369 3.4405763e-05
-9.346442e-05 -0.00011543759 -0.00011825021 9.0514506e-05 -3.466999e-05 -8.0157864e-05 6.0113296e-05 -0.000116957424
-5.574088e-05 -0.00011763085 -0.00010616814 0.00010586843 -0.000118484284 0.0 1.1897509e-05 0.000105432744
-0.0001121476 -0.00011833999 9.89792e-05 9.573214e-05 -0.00010625051 0.000118484284 0.000117970645 0.000108173685

input_bn.weight f4 [64]
00000000: abf7 7f3f 3001 803f 5ef7 7f3f 3804 803f
00000010: 1df8 7f3f aef8 7f3f 7d01 803f 1cf8 7f3f
00000020: a403 803f 23f8 7f3f 51f7 7f3f 93f7 7f3f
00000030: 8efe 7f3f 0e02 803f 3404 803f 9ef5 7f3f
00000040: 1aff 7f3f ab01 803f b704 803f 64f7 7f3f
00000050: 6504 803f 46f8 7f3f 74f8 7f3f 53f8 7f3f
00000060: 74f8 7f3f 95f9 7f3f 8cff 7f3f d0f8 7f3f
00000070: 0401 803f 1aff 7f3f 4304 803f 7f00 803f
00000080: 6cf4 7f3f 1b03 803f 1aff 7f3f 42f5 7f3f
00000090: 37f8 7f3f 9c01 803f 0105 803f 89fc 7f3f
000000a0: 1802 803f d402 803f 17f8 7f3f 2ff9 7f3f
000000b0: 5303 803f ecfc 7f3f 3400 803f eef7 7f3f
000000c0: 5800 803f 74f7 7f3f 2bf8 7f3f 6804 803f
000000d0: 5cf7 7f3f 6ffb 7f3f f404 803f 43f8 7f3f
000000e0: 2603 803f 5bf7 7f3f dcf8 7f3f b402 803f
000000f0: 74fa 7f3f 69f7 7f3f 33f8 7f3f 3002 803f
0.99987286 1.0000362 0.9998683 1.0001287 0.99987966 0.9998883 1.0000454 0.9998796
1.0001111 0.99988 0.9998675 0.99987143 0.99997795 1.0000627 1.0001283 0.9998416
0.9999863 1.0000509 1.0001439 0.99986863 1.0001341 0.9998821 0.99988484 0.9998829
0.99988484 0.99990207 0.9999931 0.9998903 1.000031 0.9999863 1.00013 1.0000151
0.99982333 1.0000948 0.9999863 0.9998361 0.9998812 1.0000491 1.0001527 0.99994713
1.0000639 1.0000863 0.9998793 0.999896 1.0001014 0.99995303 1.0000062 0.99987686
1.0000105 0.9998696 0.9998805 1.0001345 0.99986815 0.9999303 1.0001512 0.9998819
1.0000961 0.9998681 0.99989104 1.0000825 0.99991536 0.9998689 0.99988097 1.0000668

input_bn.bias f4 [64]
00000000: 0691 f9b8 199d 1c39 1091 f9b8 d0c6 a138
00000010: 1637 e0b8 1b5b d1b8 b752 c738 1437 e0b8
00000020: 6abc 1d39 1437 e0b8 1491 f9b8 1291 f9b8
00000030: 8a90 f9b8 b8f5 d338 630a c138 8ef2 19b9
00000040: 0000 0000 d873 d6b7 a2b3 4b39 1491 f9b8
00000050: 8612 3038 1437 e0b8 de90 f9b8 1237 e0b8
00000060: 1237 e0b8 ebc5 a7b8 5e71 58b8 1b5b d1b8
00000070: 7b50 be37 0000 0000 c19f 33b7 1e88 9238
00000080: eb24 2cb9 1c72 95b6 0000 0000 0331 1bb9
00000090: 1437 e0b8 9e4c c538 7fc1 4e39 e060 3939
000000a0: 0132 03b8 d68f b7b8 0491 f9b8 045b d1b8
000000b0: 0498 5b38 d259 b937 9096 00b7 0691 f9b8
000000c0: 1958 0639 0c91 f9b8 1537 e0b8 e4e3 ae38
000000d0: 1491 f9b8 374c 6db8 0147 8638 1137 e0b8
000000e0: 7c13 e138 1091 f9b8 195b d1b8 09b9 2939
000000f0: ce36 e0b8 1291 f9b8 0e91 f9b8 f414 05b7
-0.00011900258 0.00014935843 -0.00011900265 7.71411e-05 -0.00010691413 -9.982866e-05 9.504466e-05 -0.000106914114
0.00015042876 -0.000106914114 -0.00011900268 -0.00011900267 -0.00011900168 0.00010107033 9.204892e-05 -0.00014681576
0.0 -2.5564732e-05 0.00019426507 -0.00011900268 4.197892e-05 -0.000106914114 -0.00011900229 -0.0001069141
-0.0001069141 -8.000046e-05 -5.1603995e-05 -9.982866e-05 2.2687242e-05 0.0 -1.0706427e-05 6.987176e-05
-0.00016416951 -4.45383e-06 0.0 -0.0001480021 -0.000106914114 9.407963e-05 0.00019717774 0.00017679064
-3.1279404e-05 -8.7529115e-05 -0.000119002565 -9.9828496e-05 5.2355244e-05 2.2095544e-05 -7.66445e-06 -0.00011900258
0.00012812055 -0.00011900262 -0.00010691412 8.3394145e-05 -0.00011900268 -5.6576184e-05 6.4028434e-05 -0.00010691409
0.00010732465 -0.00011900265 -9.982865e-05 0.00016186027 -0.000106913605 -0.00011900267 -0.00011900264 -7.932296e-06

input_bn.running_mean f4 [64]
00000000: 0fac b2be fbe3 6abd 32a2 513d 01d5 8dbd
00000010: 73ce 95be 7c7a aa3e 3779 04be 1e17 8b3e
00000020: 4694 af3d 4cc3 14be 1c39 efbd 265e 82be
00000030: 1e8a 1a3c dd80 93be 48ad d23e f6e5 ec3e
00000040: 384a 433e e400 bcbe 1fc5 ad3d 7ea0 563d
00000050: 9923 0f3e a6dd 8c3d 68e6 3b3e e56d ccbd
00000060: abda ec3e a1e1 ee3e ad02 de3d 591b 063e
00000070: b8e3 953e a880 a73e 38c8 933d 75ce 8cbe
00000080: dd6a db3e 7945 293e bc2c 23be ca43 de3d
00000090: 80b8 ecbd 0c1e 943e c34f d5bb 5b0d 7f3c
000000a0: f86d 3c3e 23fe 21bc 2458 0c3d fe91 813e
000000b0: e410 853d 4e08 0cbc 1fe8 173e b0de e9bd
000000c0: eab9 7ebd 6a5b 5dbb c4b2 413d 8581 d9be
000000d0: 83f8 0c3d 6662 f43e d96f fcbd 17a8 993c
000000e0: 64d6 38be 227e 21be ca96 db3d b5a4 993a
000000f0: 75fe 65bd 101c b3b9 5987 643c c7aa 82be
-0.34896895 -0.057346325 0.051180072 -0.06925393 -0.2925907 0.33296573 -0.12936865 0.27166075
0.08573203 -0.14527625 -0.116808146 -0.25462455 0.009432344 -0.28809252 0.41147828 0.46269196
0.19071281 -0.3671943 0.084848635 0.05239915 0.13978423 0.068782136 0.18349612 -0.09981898
0.4626058 0.46656516 0.10840354 0.1309637 0.29275298 0.32715344 0.07215923 -0.27501264
0.42854968 0.16530408 -0.15935034 0.108527735 -0.11558628 0.28929174 -0.0065097525 0.015567149
0.18401325 -0.009887251 0.034263745 0.25306696 0.06497362 -0.008546902 0.14834641 -0.114194274
-0.06218902 -0.003377641 0.047289625 -0.42481628 0.034416687 0.47731322 -0.12326021 0.01875691
-0.18050534 -0.15770772 0.1072212 0.001172206 -0.056150872 -0.0003416245 0.013948285 -0.25520918

input_bn.running_var f4 [64]
00000000: 592a 173f 592a 173f 592a 173f 592a 173f
00000010: 592a 173f 592a 173f 592a 173f 592a 173f
00000020: 592a 173f 592a 173f 592a 173f 592a 173f
00000030: 592a 173f 592a 173f 592a 173f 592a 173f
00000040: 592a 173f 592a 173f 592a 173f 592a 173f
00000050: 592a 173f 592a 173f 592a 173f 592a 173f
00000060: 592a 173f 592a 173f 592a 173f 592a 173f
00000070: 592a 173f 592a 173f 592a 173f 592a 173f
00000080: 592a 173f 592a 173f 592a 173f 592a 173f
00000090: 592a 173f 592a 173f 592a 173f 592a 173f
000000a0: 592a 173f 592a 173f 592a 173f 592a 173f
000000b0: 592a 173f 592a 173f 592a 173f 592a 173f
000000c0: 592a 173f 592a 173f 592a 173f 592a 173f
000000d0: 592a 173f 592a 173f 592a 173f 592a 173f
000000e0: 592a 173f 592a 173f 592a 173f 592a 173f
000000f0: 592a 173f 592a 173f 592a 173f 592a 173f
0.5904899 0.5904899 0.5904899 0.5904899 0.5904899 0.5904899 0.5904899 0.5904899
0.5904899 0.5904899 0.5904899 0.5904899 0.5904899 0.5904899 0.5904899 0.5904899
0.5904899 0.5904899 0.5904899 0.5904899 0.5904899 0.5904899 0.5904899 0.5904899
0.5904899 0.5904899 0.5904899 0.5904899 0.5904899 0.5904899 0.5904899 0.5904899
0.5904899 0.5904899 0.5904899 0.5904899 0.5904899 0.5904899 0.5904899 0.5904899
0.5904899 0.5904899 0.5904899 0.5904899 0.5904899 0.5904899 0.5904899 0.5904899
0.5904899 0.5904899 0.5904899 0.5904899 0.5904899 0.5904899 0.5904899 0.5904899
0.5904899 0.5904899 0.5904899 0.5904899 0.5904899 0.5904899 0.5904899 0.5904899

residual_proj.weight f4 [64, 24]
00000000: ef98 5bbe c4a0 f93d 6a09 efbd 6d27 74be
00000010: 2fac 8f3d b5d5 e63d f63f 9a3c 1cb1 fc3c
00000020: 8868 9abd e665 173e ca71 12be 6976 bfbd
00000030: 45a3 4abe 57ec 39be 8888 843e b2f6 b73d
00000040: fec9 b43c 94b8 6dbe ec6d 4d3e e5db 3fbe
00000050: 1cc8 6cbd 8903 853c 56ab c0bd 8af3 fe3c
00000060: eb3b 0bbe 79d9 5c3e 3942 59be 4be2 733e
00000070: 6f95 a93d c0cc efbd 2f14 333e 0725 f1bc
00000080: f6b2 a4bd 88e4 7e3e 71bf 793e 094e 36be
00000090: 9243 19be 43c1 333e 61f6 4b3e 13fa 853d
000000a0: e8cc 3ebd db4c 39be 653c b53d 01b0 16bc
000000b0: c5aa 613e efee 4c3e 544f 7b3e e5db e1bd
000000c0: b04c 773e 5816 d2bd fac1 103e 20b8 b1bb
000000d0: eea6 793e a1b8 05be a2b8 363e 4c05 983d
000000e0: 1823 1fbd f6c9 21be 2230 5c3e a016 253e
000000f0: 1abb 263d e3b6 683e ee98 3b3d 8b27 e5bd
00000100: 7411 7bbd 70b6 513e f837 683e d548 10bd
00000110: 23a9 813e 40f1 493e 1a00 4ebe 1722 30be
00000120: 4971 5d3e cb17 423e 4aa4 843e f936 15bb
00000130: 86d2 2ebd afbd 2cbe 9e40 dcbd 2f63 323d
00000140: 2465 68be f25e 163e ca04 40bd c07a 6c3e
00000150: c072 443e e2f0 1cbe 608c 423c 80f1 773e
00000160: 37a4 7fba b497 5bbe 7261 2b3d 65f8 3dbe
00000170: 7f77 6abe 24e8 1e3e 59cf 2bbd ffe2 323e
00000180: 1465 513e 4e6b 4e3e 2251 773c 0f7f 5c3e
00000190: a6d6 173e 4355 ae3d b805 823e d86d 44bd
000001a0: f606 283e 2d58 113d 54cd 7e3e d3b7 8b3c
000001b0: e481 733e 1b3f 933d b764 623e d60f 28be
000001c0: 7fc8 80be cb26 7bbe b695 113e 983b ecbd
000001d0: bf49 febd c237 863b 1df3 44be 86bb 42bd
000001e0: cb3f 13be c645 5a3e 96ee ddbd cea8 2dbe
000001f0: 46dc 2b3d fc7d ec3c 3901 663e ba3e 5c3b
00000200: ae30 dfbd 9dd6 b43b 9876 32be 4f00 b43c
00000210: 3692 823e 9648 5dbe 00b2 2b3c f1f0 033e
00000220: 9fb6 77be a446 dfbd 5deb 98bd cff1 72be
00000230: aefb 01be 01de 28bb 08a4 813e a3c0 123d
00000240: 8982 fc3d 75f8 613c 0d68 2cbe a277 dfbd
00000250: 5fa4 4c3e 2ed3 493e 7f5a 023e f89e 4d3e
00000260: 4eac 72be 67e5 003e 8f1e c5bc 74ca d0bc
00000270: ee0e b03d 7a17 6a3e 2f04 ae3c 77c3 503e
00000280: 9f9b c1bd 8715 0ebe da11 343e 1510 5b3e
00000290: 1538 483e 326e 093d baff 66bc b4df 68ba
000002a0: 08e8 3abc 4836 1f3d 1acf bc3d 9ad9 243e
000002b0: 6fa4 8b3d 080b 783e 9492 31bd 0bef 753d
000002c0: ca59 6ebc 103e 3ebe cfbd 54be 4fc7 68bc
000002d0: ff22 56be e54b 60be acd3 f83d 474d ec3d
000002e0: 1145 593e 7a77 443e 59a1 583e f332 1dbe
000002f0: 918a a73d 9f97 883d 4790 a4bd 2440 73be
00000300: 13c1 0b3d 4f42 9ebd 0604 27bd a095 433d
00000310: 3a8c c13d 4b07 4b39 3103 2cbe 2654 193e
00000320: 6e1c debd 60ea 4dbe 12c2 093e 44f9 d0ba
00000330: 0286 4bbd 5653 a03d e8eb 4fbe c8fe ab3d
00000340: beb8 0e3e a664 0ebe 50ab 763e 7e7a 893d
00000350: e729 04bd 6d84 473e 9868 f83d 546b 333c
00000360: 6253 6c3e 58da 113e abc6 40be f9e7 d7bd
00000370: 5485 1abe 8e6d 393e 4bac 133e ee72 24be
00000380: d8a3 913d f65b 05be a99f 153e 2472 123d
00000390: a690 abbb 9b69 f6bd 7943 513e 4d10 01bd
000003a0: ca62 4fbe 3ae7 08bd d416 debd 0684 803e
000003b0: 2b3c 84be 4075 a03d 09b8 2dbc 8d43 72be
000003c0: 35cf e23b a0fa d6bd db22 febd a9f1 53be
000003d0: 78da 3b3d 043e 383e e63e 87bd dbd8 343e
000003e0: ea79 b73d 0800 31be 20b6 76be f066 9dbd
000003f0: df70 d73d bba1 71be 4d8f 6b3e 8b46 81be
-0.21445058 0.12188867 -0.116717175 -0.23843165 0.07015263 0.1127123 0.018829327 0.030846171
-0.07539469 0.14784965 -0.1430122 -0.09348757 -0.19788845 -0.18156563 0.25885415 0.089826
0.022068974 -0.23214942 0.20061463 -0.18736227 -0.057808027 0.016237037 -0.0940768 0.031121988
-0.13597076 0.21567334 -0.21216668 0.23816793 0.08280455 -0.11708975 0.17488168 -0.029436601
-0.080419466 0.24891865 0.24389435 -0.17803206 -0.14967182 0.17554192 0.19918205 0.065418385
-0.046582133 -0.18095724 0.0884941 -0.009197236 0.220378 0.20013021 0.2454198 -0.1102827
0.24150348 -0.10258168 0.14136496 -0.0054235607 0.24380085 -0.13058712 0.1784387 0.07422885
-0.038851827 -0.15799698 0.21502736 0.16121912 0.040705778 0.22726016 0.045800142 -0.11189183
-0.06129594 0.2047975 0.226776 -0.035225708 0.25324354 0.19720936 -0.20117226 -0.17200504
0.21625246 0.18954389 0.25906593 -0.0022768362 -0.04268124 -0.16869234 -0.10754512 0.04355162
-0.22694832 0.14684656 -0.046879567 0.230937 0.19184399 -0.15326265 0.011874288 0.24213219
-0.0009751948 -0.21444589 0.041840978 -0.18551786 -0.22897147 0.15518242 -0.04194579 0.17469405
0.20448714 0.20158121 0.015095027 0.21532844 0.14827976 0.08512356 0.25394988 -0.047956318
0.16408905 0.03548448 0.24883014 0.017055428 0.23780018 0.07189771 0.22108732 -0.16412291
-0.25152966 -0.24526517 0.14217266 -0.11534804 -0.1241641 0.0040960023 -0.19233365 -0.047542118
-0.14379804 0.21315679 -0.10836522 -0.16958925 0.041958116 0.028868668 0.22461404 0.0033606724
-0.10897957 0.005518748 -0.17428052 0.021972803 0.25502175 -0.2160972 0.01047945 0.1288488
-0.24190758 -0.109021455 -0.07466767 -0.23725055 -0.12693664 -0.002576709 0.25320458 0.035828244
0.12329585 0.013792147 -0.16836567 -0.1091149 0.19984578 0.19709465 0.12729834 0.20080173
-0.23698542 0.1258751 -0.024062423 -0.025487162 0.085965976 0.22860518 0.02124223 0.20387064
-0.094535105 -0.138754 0.17584935 0.21392854 0.19552644 0.033552356 -0.014099056 -0.0008883432
-0.01140786 0.038870126 0.09219189 0.16098633 0.068184726 0.24222958 -0.04335268 0.060042422
-0.014547775 -0.18578362 -0.20775531 -0.014207675 -0.20911787 -0.21903951 0.12149748 0.11538177
0.21217753 0.19186202 0.21155299 -0.15351467 0.08180726 0.066695444 -0.08035331 -0.23754936
0.034119677 -0.07727491 -0.04077532 0.047750115 0.09450574 0.00019362305 -0.16798092 0.14973506
-0.10845266 -0.20108938 0.13452938 -0.0015943428 -0.049688347 0.07828395 -0.20304835 0.08398205
0.13937661 -0.13905582 0.24088788 0.06712817 -0.032266524 0.1948411 0.12129325 0.010950882
0.23078683 0.14243448 -0.18825786 -0.10542292 -0.15089923 0.18108198 0.14421193 -0.16059467
0.07111329 -0.13023362 0.14611687 0.035753384 -0.0052357493 -0.120318614 0.20435895 -0.031509686
-0.20252529 -0.03342364 -0.10844198 0.25100726 -0.25827155 0.07834864 -0.010602959 -0.23658581
0.0069216737 -0.10497022 -0.12408992 -0.20697655 0.045862645 0.17992407 -0.06603794 0.17660849
0.089588 -0.17285168 -0.24092913 -0.076856494 0.10519575 -0.23596852 0.23003884 -0.25249133

residual_proj.bias f4 [64]
00000000: 6acf 0db9 0e21 51b9 74ed df38 17fb 0439
00000010: dbdd b738 b6cd 4a39 eca0 0ab7 14d7 bcb8
00000020: 577a 8938 df40 15b9 626a b238 16bf 5639
00000030: df00 5fb9 9607 b6b7 8c68 6f39 0a7e 3739
00000040: 024d 4139 12e0 98b8 efff 7439 a690 0c39
00000050: 38f7 d738 60a2 7039 cb76 e4b7 22a7 6e39
00000060: cfb6 b338 beae 0339 1c25 cd38 7a46 7239
00000070: 065d 7ab9 5ed1 fbb8 c8d9 0e39 b324 ebb8
00000080: 760c 6d39 720b 4bb9 8cc1 4c39 5f12 0c39
00000090: 9e09 67b8 cfbc 5839 e8d5 5d39 c89b 5738
000000a0: eaad 1539 36ee 1039 eb02 bb38 3e97 3eb9
000000b0: c237 7639 7081 43b9 56c3 7e39 b909 35b9
000000c0: 717d 68b9 2d97 7939 e044 b9b5 a48f 6739
000000d0: d64b 3e39 880e 8cb8 bd2b 89b8 a317 fd38
000000e0: 80cc 6bb8 8033 24b5 3f1f 05b9 0a49 29b9
000000f0: 5867 4937 f067 3b37 14ae 42b9 ac07 16b9
-0.00013524076 -0.00019944107 0.00010677698 0.00012682039 8.767444e-05 0.00019340854 -8.2629085e-06 -9.0046e-05
6.555457e-05 -0.00014233914 8.507517e-05 0.00020479815 -0.00021267262 -2.1699623e-05 0.00022831763 0.00017499193
0.00018434602 -7.289661e-05 0.00023364996 0.00013405326 0.00010298047 0.00022948673 -2.7235035e-05 0.0002275971
8.569436e-05 0.0001255823 9.782074e-05 0.00023105173 -0.00023876512 -0.0001200761 0.00013623305 -0.00011212509
0.00022606723 -0.00019363852 0.00019527058 0.00013358284 -5.508365e-05 0.00020669702 0.00021155889 5.1405077e-05
0.00014274535 0.0001382165 8.9173984e-05 -0.00018176154 0.0002348116 -0.00018644868 0.00024296096 -0.00017265127
-0.00022171975 0.00023802808 -1.3803619e-06 0.00022083387 0.00018148063 -6.678427e-05 -6.540816e-05 0.00012068383
-5.621882e-05 -6.1169703e-07 -0.00012695508 -0.00016144305 1.2004595e-05 1.1170268e-05 -0.00018566131 -0.00014307973

edge_lin.weight f4 [64, 1]
00000000: a06f 5a3e 8c19 843d 4415 043e b4eb 7e3e
00000010: 16b0 a7bd d0b3 e93c 829d d9bd 76dc 143e
00000020: 7c06 f43d 5c1f 313e 4038 54bc 76dc 003e
00000030: fb74 2ebe a671 37be 894c 82be 7ce3 2d3e
00000040: 7de6 90be 2c4b f9bd 3095 23bd a0b2 ffbc
00000050: 28dc 6f3e 0855 8f3e b5e1 06be 20e9 2abd
00000060: 4676 80be 35bd 31be 54f7 d7bd d225 80bd
00000070: e44f 553e 029a 8bbd 6cc2 ab3d e0ea 78be
00000080: 68e5 e1bd 380a 133d 2a34 c4bd 2849 8b3e
00000090: b8cf 12bd 2a99 8e3e 2232 113e 308e 043e
000000a0: 2d40 8fbe e64c 183e 00b4 63be acdb 993e
000000b0: 682a 623e 75d2 0ebe 983b 683d e0d4 c53d
000000c0: 4e6d 84be d8dd 693d 6030 74bc 9c14 943d
000000d0: 3029 5f3e a1d6 1ebe e5e7 8fbe 3468 54be
000000e0: f0fe b93c e05b 6ebd dd67 42be 8004 edbd
000000f0: 3046 173e ad88 48be 4c3f 533e 2ab5 223e
0.21331644 0.06450185 0.12898737 0.24894601 -0.081878826 0.028528124 -0.10625745 0.14537224
0.11915299 0.17297119 -0.012952864 0.12584099 -0.17036812 -0.17914447 -0.25449017 0.1698131
-0.2830085 -0.12172541 -0.0399372 -0.031213105 0.23423827 0.2799456 -0.13172038 -0.04172623
-0.25090235 -0.17357333 -0.10545221 -0.06257214 0.20831257 -0.06816484 0.083866924 -0.24308348
-0.11030084 0.035898417 -0.09580262 0.2720425 -0.035842627 0.2785123 0.1417928 0.12944865
-0.2797865 0.14873084 -0.22236633 0.3005041 0.22086489 -0.1394747 0.056697458 0.09659743
-0.25864643 0.057096332 -0.014904112 0.072304934 0.21793056 -0.15511562 -0.2810661 -0.20742875
0.022704571 -0.058193088 -0.18984933 -0.11573124 0.14772868 -0.19583388 0.20629615 0.15889421

edge_lin.bias f4 [64]
00000000: 0000 0000 0000 0000 0000 0000 0000 0000
00000010: 0000 0000 0000 0000 0000 0000 0000 0000
00000020: 0000 0000 0000 0000 0000 0000 0000 0000
00000030: 0000 0000 0000 0000 0000 0000 0000 0000
00000040: 0000 0000 0000 0000 0000 0000 0000 0000
00000050: 0000 0000 0000 0000 0000 0000 0000 0000
00000060: 0000 0000 0000 0000 0000 0000 0000 0000
00000070: 0000 0000 0000 0000 0000 0000 0000 0000
00000080: 0000 0000 0000 0000 0000 0000 0000 0000
00000090: 0000 0000 0000 0000 0000 0000 0000 0000
000000a0: 0000 0000 0000 0000 0000 0000 0000 0000
000000b0: 0000 0000 0000 0000 0000 0000 0000 0000
000000c0: 0000 0000 0000 0000 0000 0000 0000 0000
000000d0: 0000 0000 0000 0000 0000 0000 0000 0000
000000e0: 0000 0000 0000 0000 0000 0000 0000 0000
000000f0: 0000 0000 0000 0000 0000 0000 0000 0000
0.0 0.0 0.0 0.0 0.0 0.0 0.0 0.0
0.0 0.0 0.0 0.0 0.0 0.0 0.0 0.0
0.0 0.0 0.0 0.0 0.0 0.0 0.0 0.0
0.0 0.0 0.0 0.0 0.0 0.0 0.0 0.0
0.0 0.0 0.0 0.0 0.0 0.0 0.0 0.0
0.0 0.0 0.0 0.0 0.0 0.0 0.0 0.0
0.0 0.0 0.0 0.0 0.0 0.0 0.0 0.0
0.0 0.0 0.0 0.0 0.0 0.0 0.0 0.0

convs.0.att_src f4 [1, 4, 16]
00000000: a4eb b83e 8b42 813e 41cc 28be 5789 c33d
00000010: d97f 183d 6ad1 033c 2103 b73e 150e 3fbe
00000020: 043d 0abe 6b74 c33e 0e55 0e3e e31f 05bf
00000030: d0f8 dbbd 942f bd3e 16ef a93e 8a25 bb3e
00000040: 7156 a4be 2f89 d1be 7e22 333e 6235 d73e
00000050: 0e40 e53e 8c7c 573e 838a a53e cd94 c1be
00000060: 96ce 063e d02f 67bd 1b68 c8bb d86f 843e
00000070: 3214 d2be d668 583d 687f 44be 70bd 8c3e
00000080: 5163 fabe 1fb2 9abe c64f c8be 9100 d23e
00000090: 5986 ae3e 428a e83e 0e6c 0a3f d9dc 2a3e
000000a0: 510b 8f3d 4cb1 1c3e 7df0 b33d 62f0 853d
000000b0: 0aa8 d3be 77c0 d73e b9e7 bdbe 019f c33e
000000c0: 02a7 803e f267 113e c31c 523e 402e f63d
000000d0: 189a 89be 751c 95be 9386 8ebe 7ad1 a8be
000000e0: a18c 7f3e afed 263d c4b7 b8bb f126 163e
000000f0: 5883 013f 8bd5 2dbd 23a6 86be 7265 cbbe
0.3611728 0.2524608 -0.16484167 0.0954768 0.0372313 0.008045534 0.35744575 -0.18657716
-0.13499838 0.38174757 0.13899633 -0.5200178 -0.107408166 0.36950362 0.3319022 0.36552078
-0.320972 -0.40924975 0.17493626 0.42032915 0.44775432 0.21043605 0.3233224 -0.37808838
0.13164744 -0.056442082 -0.006115926 0.2586658 -0.41031033 0.052834354 -0.19189227 0.2748828
-0.48903897 -0.3021402 -0.39123362 0.41016057 0.34086874 0.45417982 0.5407113 0.16685809
0.0698458 0.15302008 0.08786104 0.0653999 -0.4133914 0.42139027 -0.37090853 0.38207248
0.25127417 0.14199808 0.20518784 0.1202054 -0.26875377 -0.29123273 -0.27837047 -0.32972318
0.2495599 0.040754016 -0.005637141 0.14663292 0.5059104 -0.04243998 -0.26298627 -0.39725834

convs.0.att_dst f4 [1, 4, 16]
00000000: f6b2 e73e 42cb f7be e2d8 883e d26c f53e
00000010: 8aca 953e 4d7e 8abb 27ab 91bd 60af b13e
00000020: 321d 95be 7f45 463e 3e59 2dbe 2ec0 933e
00000030: b356 f8bd 0726 bbbe 8f2b 56be d8ea a43e
00000040: c0ad 4c3e 24ff c5be ef59 b6be 7434 e6bd
00000050: 6656 56bd f4b0 1dbe 4d8b bc3e d9ba 1b3d
00000060: efd7 15be 60b8 00bd 1269 803e 29aa c4be
00000070: acc7 09bf a447 e1be 5797 763e 4193 733d
00000080: 08d3 fabe 6834 e53e e433 963e 1ed4 02bf
00000090: f54e ac3e 6927 aebc 4f7f 3c3d 4040 e63e
000000a0: 44e0 d83e 4c0d f53d 4903 86be 83e5 d23e
000000b0: 9a20 e93e 5198 a5bd a779 dfbe 6a5c 033f
000000c0: 3274 72be 2e88 a7be 7f62 04bf 7282 623e
000000d0: 1f6c 573e d669 71be fce0 07bf f351 c43e
000000e0: 9d8f 083d e7f4 f83e f2be 51bd a610 fd3e
000000f0: d457 0ebe dd2a 82be 03ec a33e baf5 0b3e
0.45253724 -0.4839726 0.26727968 0.47934586 0.29256088 -0.004226482 -0.07112723 0.34704113
-0.29123837 0.19362448 -0.16928574 0.2885756 -0.121259116 -0.3655245 -0.20915054 0.32210422
0.19988155 -0.3867122 -0.3561549 -0.112404734 -0.05232849 -0.15399534 0.36825028 0.03801999
-0.14633153 -0.031425834 0.25080162 -0.38411072 -0.538203 -0.4399997 0.24081169 0.059466604
-0.4898913 0.44766545 0.29336464 -0.51104915 0.3365399 -0.021259027 0.04601985 0.44970894
0.423586 0.11965427 -0.2617438 0.4119073 0.45532686 -0.08085693 -0.436475 0.5131289
-0.23677137 -0.32721084 -0.51712793 0.22120073 0.21037339 -0.2357553 -0.53077674 0.38343772
0.033340085 0.48624346 -0.05120749 0.49426764 -0.13900691 -0.25423327 0.32016 0.13667956

convs.0.bias f4 [64]
00000000: 22ba 6837 1083 0f39 fe1c f3b8 7f90 8e37
00000010: 8439 5c38 2ce0 f238 a6a7 cab7 0e12 2ab8
00000020: 4ce8 b338 28f0 05b8 2d6a 8538 90f9 9235
00000030: 203b 0cb7 0348 42b8 cec4 b738 c71b cf37
00000040: d8ab 6836 5195 d3b7 3749 2c38 71db f4b8
00000050: 24b8 30b8 1876 72b8 8e3a 9f37 f497 c6b8
00000060: e91a 2a37 a8c2 6ab8 a34c 4db8 83d6 3bb8
00000070: 3a77 c8b8 7ab3 1b38 037b 0539 fc11 4d37
00000080: 46d2 3ab8 67a2 b7b8 316a 4638 c2bd 06b7
00000090: 8e35 f4b8 543e 11b8 8ef8 d2b7 0a2b 69b8
000000a0: b8e9 14b6 50cf ca38 085a 9eb8 7ab4 53b7
000000b0: c2f9 0b38 77bf 59b7 d4af 57b8 9857 1537
000000c0: a4b4 23b8 55f9 a538 8941 d0b7 58a4 93b6
000000d0: 2d5c be36 ddf5 2438 a5e5 3f37 ce1c 5eb8
000000e0: a24a 9037 8f52 b138 0867 d538 0699 33b8
000000f0: 9a17 bab8 397b 6e38 55e9 ca38 0420 ea36
1.3871615e-05 0.00013686367 -0.00011592543 1.6995005e-05 5.2505653e-05 0.000115812145 -2.4158344e-05 -4.0547973e-05
8.578654e-05 -3.1933334e-05 6.361711e-05 1.095048e-06 -8.358416e-06 -4.632027e-05 8.762778e-05 2.4689258e-05
3.467072e-06 -2.5222691e-05 4.1076182e-05 -0.00011675701 -4.2133164e-05 -5.780728e-05 1.8981544e-05 -9.469679e-05
1.0139055e-05 -5.5971235e-05 -4.8947182e-05 -4.4784054e-05 -9.558951e-05 3.712203e-05 0.00012729694 1.22231395e-05
-4.4541688e-05 -8.75637e-05 4.7305777e-05 -8.031204e-06 -0.00011644802 -3.462874e-05 -2.5149693e-05 -5.5591612e-05
-2.218976e-06 9.6707256e-05 -7.550797e-05 -1.26186005e-05 3.3372788e-05 -1.2978787e-05 -5.1423747e-05 8.901487e-06
-3.9030463e-05 7.914255e-05 -2.482605e-05 -4.4000735e-06 5.673172e-06 3.9329625e-05 1.1437955e-05 -5.295575e-05
1.7200891e-05 8.4553954e-05 0.000101758225 -4.281944e-05 -8.873567e-05 5.6858382e-05 9.675572e-05 6.9774705e-06

convs.0.lin.weight f4 [64, 64]
00000000: a094 8abd 5580 10bd 45db 4e3d ea91 063e
00000010: b3e5 80bc 0159 fabd cad8 3c3e 1e50 2bbd
00000020: b51b 943d eb83 493e 2cc4 353d 91bb 473e
00000030: 707e 54bd 5d7e eabd 7fe9 e03d 6f6a 4c3e
00000040: 4a90 5c3e 770a 5b3e 7e43 773d 7408 53be
00000050: 0b04 3b3e 1b58 4f3e 4b92 45be 4369 3ebb
00000060: 36de 01bb 62cb 98bc fa3c ef3d a02c d2bd
00000070: 6615 bfbd fa3f 35be 754b 62bd 7e35 edbd
00000080: 3fe6 e3bd c743 143e 98d3 debc 8348 24be
00000090: 2818 01be cf17 893d c8b5 cfbd 4438 3e3e
000000a0: 697e b23d 540e 02be 1bbf 1bbe ff42 aebd
000000b0: d8d7 32be c016 123e 4418 30be 1b03 e83d
000000c0: 6d4e e2bd 8383 923d 719a 3e3d 1d33 cb3d
000000d0: a0c5 c93d 2a8c 1f3e 3715 223e 1467 463e
000000e0: e915 86bd 62fc 13be 27d2 f5bc 1f03 97bd
000000f0: ef52 88bc 0573 c4bd 0353 2dbe d280 58bd
00000100: e450 553e bb03 383e a017 a7bd 1b28 213e
00000110: f125 0abd 3357 0fbd 6340 50be 01f0 423e
00000120: dc8b 4ebe 8aa9 753d ee1a 3fbe f218 373e
00000130: 734b 4bbe 71cc cd3d 7392 50be 68d7 0d3d
00000140: 7a85 043e fdbe 3f3e ac49 cab9 0b61 3a3e
00000150: 3237 123e af13 253e 216e 203e eeb3 45bd
00000160: 9703 353c 0c8c 17be 0488 273d 8a1e f03d
00000170: 2a2b 393d 42a7 47be b668 d1bd bdf1 ba3d
00000180: 5634 39be 3f21 433e 6aea c3bd 0b04 36bd
00000190: 6656 26bd b105 6cbd 8a1d 38be 8197 5abc
000001a0: 6d79 81bd 6027 163e 942d abbc 2955 6dbc
000001b0: 536f c93d e751 5c3e 7916 2bbe 99b5 94bd
000001c0: 8e77 23bd e32d 413e cec6 e8bc fe2a 53bd
000001d0: a7a7 c7bd ca7b 6fbd d6ac 51be 693c 4bbe
000001e0: c61e b63d 6852 90bb 4f33 58be bf68 9a3c
000001f0: cb1e 99bd 8aaa ce3d f619 1c3e 71e1 413e
00000200: e792 723d 9155 583e 74b3 4e3e 4a19 5bbd
00000210: 5338 3ebe 25b5 8cbc 098e 273e 82df bc3d
00000220: f691 9bbd 9e00 17bd db55 063e ef54 d43d
00000230: 3c12 293e 99fb ad3d b87c 93bd fbe9 44be
00000240: 5851 023e 7fbe 14be 7b3c 13be 0eea c7bb
00000250: 2c7d 7fbb 7bee 36be 9756 0d3e 7e6f b13d
00000260: 59f7 75bd 0bff 36bd 707b 3bbd 029e ff3d
00000270: 907f ea3d 427b 44be b8e1 7fbd 3b14 3abc
00000280: 63bf 3bbe aea8 38be 0f1b 6e3d 5167 81bd
00000290: cdd5 57be feae 303e 4ec6 12be 48ec 53be
000002a0: dcb8 903a 69aa 26be 817d 413e acf5 8cbc
000002b0: ec2f d8bd 6cfd a43d 3b0b f5bd 07a2 11bd
000002c0: f607 013e 0476 3d3e efc8 4cbe 24f3 253e
000002d0: df73 53be 2955 d63d e5ed 17be 5b77 debc
000002e0: 13c4 0fbe 5312 3d3e ea68 cb3d 1d75 143c
000002f0: cf9e 5b3e cee7 34be b0f2 f6bd 4333 113e
00000300: c457 f13d 3e0a b23d adca a2bd ad97 c1bd
00000310: 2aa4 553e 91b8 a03c a105 51be a17a 1c3e
00000320: 5c48 2d3b 1f69 5dbe b7fd f1bd 08e6 33be
00000330: 8e3b 77bd e5aa 073d 78fa a1bd 2bfc fd3d
00000340: ff17 f0bd 46e8 5b3e 5d68 41be bc2b 35be
00000350: 702a 06bc d4f6 293e d28a 76bd eb91 17be
00000360: b5c5 1f3e f0b8 0d3e 9f97 93bd e4da 39be
00000370: 4190 8a3d 754b fc3c ae30 0f3e d3d2 30be
00000380: e8f7 8fbd f08d 553e aee9 133e c464 91bd
00000390: 8e8e 97bd 22bb 263e 7e87 c53d 8427 21be
000003a0: b42e e13d 3094 bbbc 4f33 4f3e 5672 25be
000003b0: fbee d0bd 31a0 4f3e ef47 99bd 7ead 5bbe
000003c0: 737d e73d 6a7f 82bc 7caa bd3d 5e71 2bbd
000003d0: 46b0 2b3e 29e0 75bc f9bb 84bc a83c 143e
000003e0: 476c 77bb 707a 4dbe dfbd 413d 2a07 b93d
000003f0: bb34 d6bd 38b9 d1bd 985f 433e 4ec0 d3bd
-0.06766629 -0.035278637 0.05050208 0.131416 -0.01573453 -0.122240074 0.18442073 -0.041824453
0.07231847 0.19679229 0.044376537 0.19505145 -0.051878393 -0.11449883 0.10982036 0.19962476
0.21539417 0.21390711 0.0603671 -0.20608693 0.18263261 0.20248453 -0.19294088 -0.002905444
-0.0019816286 -0.018651668 0.11681552 -0.10262418 -0.09330253 -0.17700186 -0.055247743 -0.115824685
-0.111279 0.1447898 -0.027200505 -0.16043286 -0.12606871 0.06693994 -0.10142094 0.18576151
0.08715517 -0.12700778 -0.1520962 -0.08508872 -0.1746515 0.14266491 -0.17196757 0.11328717
-0.11050115 0.0715399 0.046534006 0.099218585 0.09852147 0.15580812 0.15828405 0.19375259
-0.06547148 -0.14451745 -0.030007435 -0.07373642 -0.016641108 -0.09592251 -0.16926198 -0.052857228
0.20831639 0.17970173 -0.08158803 0.15737955 -0.03372759 -0.03499527 -0.20337062 0.19036867
-0.2017054 0.05997614 -0.18662617 0.1788061 -0.19853 0.1004876 -0.20368366 0.034629256
0.12941542 0.187252 -0.00038583332 0.18201081 0.14278868 0.1612079 0.15667011 -0.048267297
0.011048219 -0.14799517 0.0409012 0.11724575 0.04520718 -0.19497398 -0.1022505 0.09128139
-0.18086371 0.19055651 -0.09566195 -0.04443745 -0.04060974 -0.057622615 -0.17980018 -0.013341785
-0.06321988 0.14663458 -0.020895757 -0.014485636 0.098356865 0.21515618 -0.16707791 -0.072611995
-0.039908938 0.1886516 -0.02841511 -0.051554672 -0.09748774 -0.058467664 -0.20476088 -0.19847263
0.08892588 -0.004404355 -0.21113323 0.018848775 -0.074765764 0.100911215 0.15244278 0.18933655
0.05922213 0.21126391 0.20185643 -0.053490914 -0.18576173 -0.01717622 0.16362776 0.09222318
-0.07596199 -0.036865823 0.13118689 0.10367762 0.16510862 0.08495254 -0.072015226 -0.19229881
0.12726343 -0.14525793 -0.1437854 -0.0061008995 -0.003898452 -0.1786441 0.13802563 0.086638436
-0.060050342 -0.04467682 -0.045772016 0.124813095 0.11450112 -0.19187644 -0.06247112 -0.011357362
-0.18334727 -0.18033096 0.058131274 -0.06318534 -0.21077652 0.17254254 -0.1433346 -0.20695603
0.001104142 -0.16275944 0.18895532 -0.01720699 -0.10556015 0.08056149 -0.11965033 -0.035554912
0.12600693 0.1850205 -0.19998525 0.16206032 -0.2064967 0.10465462 -0.14836843 -0.027156522
-0.1403964 0.18464021 0.0993212 0.009061125 0.214473 -0.17666551 -0.12058008 0.14179711
0.11784318 0.0869336 -0.079488136 -0.09452758 0.20863405 0.019619258 -0.20412304 0.15281154
0.0026440835 -0.21622132 -0.118159704 -0.17568219 -0.06035953 0.033121962 -0.07909101 0.12401613
-0.11723327 0.21475324 -0.18887468 -0.17692465 -0.008188829 0.16598064 -0.060190983 -0.14801757
0.15602763 0.1384008 -0.07206654 -0.18149906 0.067657955 0.0307977 0.13983414 -0.17267923
-0.07029706 0.20854926 0.1444461 -0.07099298 -0.07400237 0.16282323 0.09644984 -0.1573773
0.10995236 -0.02289781 0.20234416 -0.16156897 -0.10201832 0.20275952 -0.07484423 -0.21452901
0.113032244 -0.015929896 0.09261033 -0.041856162 0.16766462 -0.015007057 -0.016202914 0.14476264
-0.0037753747 -0.20066237 0.047300216 0.090345696 -0.10459276 -0.10240406 0.19079435 -0.103394136

convs.1.att_src f4 [1, 4, 16]
00000000: 680f ed3e f222 a73e b4d9 c2bd ab3f d6be
00000010: de38 79be d970 5dbe 66dd a8be abe3 eebe
00000020: 00c8 febd 6c43 de3e 44dc babd 8c58 683e
00000030: 5eff 123c 8658 f2be 9b08 e03e 8ae5 ef3e
00000040: 927d f0bd 38b8 473e 6123 633e b593 b2be
00000050: 9368 d53d 98ff 9fbe c3cc 8a3e d963 ddbe
00000060: 333b ad3c 324a 39be a23a f0be a013 553d
00000070: a63d 12be 416c 1bbd 7d4f fd3c 85a8 e13e
00000080: 171e c6be 46ca 723e a603 a2be b169 7f3e
00000090: 0a0f 493e 809b e63e 46b1 71be 2395 603d
000000a0: e1e3 fdbd aa36 e2be 3c9a debe 4a74 043f
000000b0: 520e 913c eb50 a53e f4f2 fdbe b866 df3e
000000c0: 7a83 9e3e b107 903e 8e0c b73e d746 b9be
000000d0: 2f78 fc3c 4f0e f4be 68b5 39bd bdc6 e23e
000000e0: d46f 8f3e caca a03e 2892 9dbe 88a4 f8be
000000f0: 9c7f 18be 200f d33e d339 da3e 1069 093f
0.46300817 0.3264385 -0.0951418 -0.4184545 -0.243381 -0.21625079 -0.32981414 -0.46658072
-0.12440491 0.43410814 -0.091240436 0.22690028 0.008972017 -0.47333163 0.43756565 0.46854812
-0.11742701 0.19503868 0.22181465 -0.34878317 0.104203366 -0.3124969 0.27109346 -0.4324024
0.021146392 -0.1809471 -0.46919733 0.05202067 -0.1428133 -0.037945036 0.030921692 0.44073883
-0.38694832 0.23709974 -0.3164341 0.24942662 0.19634643 0.45040512 -0.2360278 0.054829728
-0.1239698 -0.4418233 -0.43477046 0.51739943 0.017707024 0.32288298 -0.4959942 0.43633056
0.30959684 0.28130868 0.35751766 -0.3618686 0.030819027 -0.47667167 -0.045339018 0.4429225
0.28015006 0.31404716 -0.3077557 -0.48563027 -0.14892429 0.41222477 0.4262224 0.5367594

convs.1.att_dst f4 [1, 4, 16]
00000000: ee8a 743e deb3 fcbc 4f9a 05bf 52f2 f2bc
00000010: ee9b a53e ef61 483e 3551 2ebe c522 8dbe
00000020: 6677 9e3e 6e2e e43c 9f57 163d f8b7 20be
00000030: e5d0 663e dd44 13be 80c7 aa3e 2511 e03d
00000040: 83b6 27be 3fd1 59bd 099d 7dbe 96e4 d03e
00000050: 2983 1cbe 1dbf e83e 3e37 09bf 83f1 b43e
00000060: dc3c 633e f774 e43e 7520 4abe 8c1c c5be
00000070: 5b25 493e ddf4 dbbe d44b e23e 7448 763d
00000080: 66c5 c33e a85c c43e b0da fabd 5179 62be
00000090: e8a2 1dbe bf45 95be 7d8d 2d3e aaba e93d
000000a0: 5951 b4be 35ac d93d 9421 023f 8e0a e13e
000000b0: 9830 953e bf3d 863d 9a37 853e 7c01 933e
000000c0: f8f2 69be 4f4e 20be 92d9 babc ef1a 903e
000000d0: 8904 f5be 0629 c53d 55ba c73e e37e 2a3e
000000e0: ae6e d4be bde2 99be 7f77 fabe 43fa e2be
000000f0: 1e88 e1be 2185 32bd fc6a 67be 2fd5 07bf
0.23881122 -0.030847486 -0.5218858 -0.029656563 0.32345527 0.19568609 -0.17023166 -0.2756559
0.3095047 0.02785417 0.036704656 -0.15695179 0.22540624 -0.14381738 0.3335533 0.1094077
-0.16378216 -0.05317807 -0.24766935 0.40799397 -0.15284409 0.45458308 -0.5359992 0.3534051
0.22191185 0.44620487 -0.19738944 -0.38498342 0.19643156 -0.42960253 0.44198477 0.06012769
0.3823654 0.3835194 -0.122487426 -0.22116591 -0.15394175 -0.29154775 0.16948505 0.114125565
-0.35218313 0.10628549 0.50832486 0.43953365 0.29138637 0.06554746 0.26018983 0.2871207
-0.22846591 -0.15654872 -0.022808824 0.2814555 -0.47855023 0.09626965 0.39009348 0.16649966
-0.41490692 -0.300558 -0.48919293 -0.4433156 -0.44049162 -0.043583993 -0.22599405 -0.5305967

convs.1.bias f4 [64]
00000000: d390 9cb1 2876 7730 2486 cc31 0c93 c72f
00000010: c025 e6b0 f8b9 71b1 dc78 e6b1 33b0 e730
00000020: fde4 7131 d61e 2331 cb04 d6b0 7aa7 75b1
00000030: fed9 5eb0 d2a3 1eb1 2a85 f331 24c5 6bb1
00000040: cc9b 2032 2e29 782f 3bce 02b1 5f0c ccb0
00000050: 4487 2931 625a cb31 94d0 75b1 fe4b 6eb1
00000060: 1e66 a531 724f f3af b4f8 b0af 4619 35b0
00000070: c77d 6b31 8681 6b30 9efc 23b1 61e9 fb31
00000080: cc89 abb1 9804 2032 c1a9 0931 d46b 82af
00000090: b3f2 18b1 0c04 0631 2271 4b2f ec2b 8331
000000a0: ada9 02b1 063a ebb1 e46f e731 71b7 9eb0
000000b0: 30b3 27b1 8efe b031 1494 95b0 e077 3cb0
000000c0: 116b 01b1 fea7 a0b0 5703 1430 3a49 4230
000000d0: 3849 8fb0 ecf1 8a30 14b6 54b1 3058 3a2f
000000e0: 3cb2 1231 d6c8 a131 bda2 0eb1 de9d 0630
000000f0: 28b4 ffb1 f080 d3b0 5088 0631 7b09 5c30
-4.556662e-09 9.0025987e-10 5.9524314e-09 3.6302372e-10 -1.6745432e-09 -3.5175827e-09 -6.707621e-09 1.6857541e-09
3.520028e-09 2.373715e-09 -1.5571912e-09 -3.5747392e-09 -8.1072915e-10 -2.3085147e-09 7.08737e-09 -3.4309062e-09
9.34865e-09 2.2570099e-10 -1.9034718e-09 -1.484647e-09 2.4669626e-09 5.918353e-09 -3.5770755e-09 -3.4676755e-09
4.8137414e-09 -4.4257892e-10 -3.2190928e-10 -6.588333e-10 3.4268497e-09 8.5676566e-10 -2.3863218e-09 7.3315936e-09
-4.9924207e-09 9.31427e-09 2.0032618e-09 -2.372348e-10 -2.225687e-09 1.9501867e-09 1.8502935e-10 3.817595e-09
-1.901394e-09 -6.8459967e-09 6.7357053e-09 -1.154815e-09 -2.4403555e-09 5.1512137e-09 -1.0883263e-09 -6.8564354e-10
-1.883283e-09 -1.1689278e-09 5.384683e-10 7.068085e-10 -1.0425429e-09 1.010958e-09 -3.095356e-09 1.6947932e-10
2.134711e-09 4.708549e-09 -2.0756226e-09 4.897326e-10 -7.441958e-09 -1.5388917e-09 1.957705e-09 8.0049006e-10

convs.1.lin.weight f4 [64, 64]
00000000: 7386 e8bd 60b6 8d3d d45b 3f3e 33ef 263e
00000010: 2041 6f3a 7569 62bd df74 413e b878 7c3d
00000020: 09a7 41be 531c e2bd 5286 8cbd 2079 02bd
00000030: 4c2b d8bd 48b6 333d d182 bd3d 9451 2abe
00000040: eea2 18be f4d1 c63d 5f2c 5abe 60ed 953d
00000050: bb25 4c3d 5e17 4cbe 0080 ffbb b8d4 293e
00000060: 06fc 4bbc 8262 1abd 594c 24be 674d d939
00000070: edaa 5abe c215 233e b637 3cbe e708 4bbd
00000080: 6d51 b13d c084 93bc 8246 323d f3d9 d23c
00000090: 1ad0 18bd f8a0 90bd 5c63 393e 0bd9 3d3d
000000a0: 1ff2 1c3c 0be1 893d 3af3 963d adb2 b33d
000000b0: b48a 99bb dae8 0ebc b72b d5bc 98c4 22be
000000c0: 1b2d 87bc 6966 29be 3130 133e 9257 e23d
000000d0: 84b7 333d fac4 58be 5655 9e3c 1dbc 043d
000000e0: 8ce4 7a3d 5361 5a3e a589 293e 13f7 913d
000000f0: 65cf 493e f667 68bc 4351 0f3e e45a 623c
00000100: d0ff 313d 55a2 623d 9d1c 29bd ccd6 523e
00000110: 71d9 323e acb1 d1bd 477a 26be 6dab 453e
00000120: 1548 b23d da87 b7bd 9ba2 5abe 1d27 85bc
00000130: 1120 993d 0bb0 473e b8af be3d df88 8e3c
00000140: ba1e 443e d102 873d 33bb 933d fbc9 0bbd
00000150: ab1a 483e 2f01 ba3d 3182 dfbc 9b2d 993d
00000160: 5eac 09be c855 40be bbe5 5b3e f2fb f23d
00000170: 973f 6e3d 724c 1abe e146 463e 0d69 b6bc
00000180: a95c 4f3d 5fbc 06be 8f98 2dbd d870 423d
00000190: 537e bdbd ec54 c93c aedb 15be f663 d1bd
000001a0: c827 35be 35c2 3c3e 7dd4 813c 49c2 033d
000001b0: a5f9 043e d232 503e f486 313e dc0b 053e
000001c0: 4c35 50bc 040f ab3d cf91 d23d e9d7 f23d
000001d0: f191 28be 25d6 2cbe 36c4 58be bd48 173e
000001e0: 299d 403e 70e1 213e 13ec 303d 9bb7 613c
000001f0: 92f8 cebd c0c3 493e d3c6 1a3e ec9e 8e3c
00000200: 7eba 52be 436b 353e 0cac f2bd 1979 9dbd
00000210: 4cce 2f3e f8cb edbd 6abb 0b3e d393 de3d
00000220: cbdd d2bd 52a9 54be 2ea1 72bd 8413 22be
00000230: 8fdd 53be a14d 503e b598 a0bd 0c69 88bd
00000240: 42ba 043e c692 2abd 2832 30bd f325 30be
00000250: fff7 0cbd d5a8 2bbe ca99 fc3d bfe9 55be
00000260: f10e 8b3d 5764 51be 0d02 373e a25a 023e
00000270: 4d90 143d 89f6 94ba 5ade 993d a88c 4b3e
00000280: 6aec 32be 8665 fb3d ca4f 5b3c 32e8 91bd
00000290: 71f3 4f3e 3b83 833d 2dcc 5bbe 0d95 99bd
000002a0: 2f1d bf3d 78e4 05be 67f6 2ebe 7d2a 26be
000002b0: f85e bb3d f5fb 51bd b072 17be 45f4 e53d
000002c0: 2c7b ca3d 1fd0 1d3e 8f6d ddbc 1065 0fbe
000002d0: 0fd8 2f3d 955d 8eba 8a89 303e c4c9 d13d
000002e0: 6c26 e1bd 031e 093e 3fe6 813d f687 94bd
000002f0: 280a 4fbd 8a36 adbd f8a0 303e c19a c93d
00000300: 4b97 08bd a617 503e da7b 023e a0d8 223e
00000310: 0dc2 d0bc 7b8a 84bc 74cd 58be 6eed 02be
00000320: 578f 033e 88d3 08bd bf08 be3d 341d 20be
00000330: 82cc 213e 62e0 433e df2c 09be 9272 573e
00000340: a489 2f3e 626f 92bd 9729 dd3d a959 56be
00000350: 1f05 d4bc a61f cb3c b9f2 4b3e 6d39 3b3e
00000360: a32a 22be dcf3 48bc 8db2 13be 0d22 c53c
00000370: ed73 45be 1dee 4b3d 1466 bc3d d55b 983d
00000380: a6cc c73d ccb9 4c3e bb45 343d c130 ec3d
00000390: 8247 a83d 2188 2fbe 0755 39be a7fd 6d3d
000003a0: 9814 58bd ec35 1d3d 1a2c 5bbd 0c65 923d
000003b0: da13 46be b09a c2bc b042 41bd 4475 5c3e
000003c0: 1003 dd3d 2b70 013d cbc9 09be 7b16 23be
000003d0: e08c 39be 13f0 edbd d34a 48be 2d66 1d3e
000003e0: ddd7 583e 506d 5cbd 5218 24bd dcc4 2a3e
000003f0: a2d7 b4bd 5663 aa3d c835 35be 10ed 463e
-0.11353769 0.06919551 0.18687373 0.16302185 0.0009126831 -0.055276353 0.18892239 0.061638564
-0.18911375 -0.11040559 -0.06861557 -0.031853795 -0.10555133 0.04387501 0.09253467 -0.16632682
-0.14905903 0.09708014 -0.21305989 0.07320666 0.04984067 -0.19930789 -0.007797241 0.16585052
-0.012450224 -0.0376916 -0.1604475 0.00041447135 -0.21354266 0.15926269 -0.18380627 -0.049569037
0.08658109 -0.018007636 0.043524273 0.025738692 -0.037307836 -0.07061952 0.18104309 0.046349566
0.009579211 0.06732377 0.073706105 0.08774314 -0.004685724 -0.008722508 -0.026021821 -0.15895307
-0.016501 -0.16542973 0.14373852 0.11051859 0.043876186 -0.2116889 0.0193278 0.03240596
0.061253116 0.21326189 0.16556413 0.07127204 0.19708021 -0.0141849425 0.13995843 0.013815615
0.043456852 0.055330593 -0.041287053 0.20589751 0.1746576 -0.10238966 -0.16257583 0.19303675
0.08705155 -0.089614585 -0.21351092 -0.016254002 0.07476819 0.19500749 0.093108594 0.01739925
0.19152346 0.06592334 0.0721344 -0.03412817 0.19541423 0.09082257 -0.02728376 0.07479402
-0.13444659 -0.18782723 0.21474354 0.11864461 0.058166113 -0.15068224 0.19362976 -0.022266889
0.050625477 -0.13157795 -0.04238182 0.047470897 -0.0925261 0.024576627 -0.14634582 -0.10224144
-0.17690957 0.18433459 0.015848393 0.032167707 0.12985857 0.20331886 0.17336637 0.12992805
-0.012708019 0.083524734 0.10281717 0.11857588 -0.16461922 -0.16878565 -0.21168599 0.14773841
0.18809952 0.15808654 0.043193888 0.013776685 -0.10106005 0.19703579 0.15114908 0.017409764
-0.20578954 0.17716698 -0.118492216 -0.07689113 0.1716854 -0.116111696 0.13645712 0.10868039
-0.1029621 -0.20767716 -0.059235744 -0.15827757 -0.20689987 0.20342113 -0.078416266 -0.06660661
0.12961677 -0.04164388 -0.043016583 -0.17201976 -0.034416195 -0.16763623 0.123340204 -0.20889948
0.06789959 -0.20448433 0.17871876 0.12729886 0.03627043 -0.0011364977 0.07513113 0.19877875
-0.17472997 0.122752234 0.013385722 -0.07124366 0.2030771 0.064215146 -0.21464606 -0.07499132
0.09331738 -0.13075435 -0.17086183 -0.16227145 0.09148973 -0.051265676 -0.14789844 0.11228231
0.098867744 0.15411423 -0.02702978 -0.14003396 0.04293066 -0.001086163 0.17239967 0.10243562
-0.109936565 0.13390355 0.06342744 -0.07252495 -0.050546795 -0.08457668 0.17248905 0.0984397
-0.03334741 0.20321521 0.12742558 0.15902948 -0.025483156 -0.016179314 -0.21172124 -0.12785885
0.12847649 -0.033404857 0.09279012 -0.1563614 0.1580067 0.19128564 -0.13396023 0.21039799
0.1714235 -0.07150151 0.10798948 -0.2093264 -0.025881348 0.024795365 0.1991681 0.18283625
-0.15836577 -0.012265172 -0.1442358 0.024064088 -0.19282503 0.04978763 0.09199157 0.074393906
0.097558305 0.19992751 0.044011813 0.115327366 0.08216764 -0.17141773 -0.18098842 0.05810323
-0.052754015 0.038381502 -0.053508855 0.071481794 -0.1934351 -0.023755401 -0.04718274 0.21529108
0.107916 0.031601112 -0.13455884 -0.15926544 -0.18120146 -0.11618056 -0.19559793 0.15371008
0.21176095 -0.053815186 -0.040062256 0.16676658 -0.08830191 0.08319728 -0.17696297 0.1942637

bns.0.weight f4 [64]
00000000: 5100 803f 17f8 7f3f 23fc 7f3f 8201 803f
00000010: 5904 803f 11f6 7f3f 5b03 803f b3fc 7f3f
00000020: 6102 803f 6af3 7f3f e503 803f ccf7 7f3f
00000030: b8fd 7f3f ebf3 7f3f f7f9 7f3f 1c05 803f
00000040: 6201 803f 0306 803f e6fc 7f3f 97f9 7f3f
00000050: b5fe 7f3f 4c04 803f b6f7 7f3f 1305 803f
00000060: 0207 803f d6ff 7f3f adff 7f3f 43f8 7f3f
00000070: d4ff 7f3f de04 803f 4400 803f 20fc 7f3f
00000080: 1807 803f b3fb 7f3f 9a03 803f 35f7 7f3f
00000090: 43fa 7f3f 6802 803f 4402 803f 4f02 803f
000000a0: bd05 803f 6b01 803f 84f0 7f3f f501 803f
000000b0: 2600 803f caf8 7f3f b6fc 7f3f fd03 803f
000000c0: 75fa 7f3f 29f9 7f3f c302 803f f000 803f
000000d0: e2fe 7f3f 2df9 7f3f 64fa 7f3f 4ff8 7f3f
000000e0: 2404 803f 5302 803f f101 803f 28fa 7f3f
000000f0: fdfe 7f3f 4ef3 7f3f 2600 803f 88f9 7f3f
1.0000097 0.9998793 0.99994105 1.000046 1.0001327 0.9998484 1.0001024 0.99994963
1.0000726 0.99980795 1.0001189 0.99987483 0.9999652 0.99981564 0.9999079 1.0001559
1.0000422 1.0001835 0.9999527 0.9999022 0.9999803 1.0001311 0.9998735 1.0001549
1.0002139 0.9999975 0.99999505 0.9998819 0.9999974 1.0001485 1.0000081 0.9999409
1.0002165 0.9999344 1.0001099 0.99986583 0.99991244 1.0000734 1.0000691 1.0000705
1.0001751 1.0000433 0.9997637 1.0000597 1.0000045 0.99988997 0.9999498 1.0001217
0.9999154 0.99989563 1.0000843 1.0000286 0.99998295 0.9998959 0.9999144 0.99988264
1.0001264 1.0000709 1.0000592 0.99991083 0.99998456 0.9998063 1.0000045 0.9999013

bns.0.bias f4 [64]
00000000: e105 aab8 5bb5 dcb8 e825 5538 5f26 cab8
00000010: 3455 8137 3d96 e7b8 57af 0938 2c1a 33b8
00000020: 44d0 df38 5eec 25b9 e64c 1a39 c795 e6b8
00000030: 289e ab38 2cef 2ab9 1043 fcb8 e192 3139
00000040: ddb2 5a38 300b 1539 7232 6db8 785d 4c39
00000050: 433c e438 f07e e838 ec9a f8b8 1ae1 8838
00000060: 9859 5139 b659 d4b8 63db cb38 3c01 75b8
00000070: 7112 6637 f480 4839 e96b 12b8 a57f 98b7
00000080: 3851 6039 9cf7 dcb8 2265 2339 af14 91b8
00000090: df55 aa37 4d5e ef38 56f6 c438 c4a3 e738
000000a0: 5e64 5239 9836 e1b7 5673 56b9 130e 8c38
000000b0: 0264 93b8 b30d 01b8 f08a 62b7 7c4a 2539
000000c0: d19b a237 3ea5 e7b8 0303 0a38 f6cc 8eb8
000000d0: 281b 9536 7cec 8038 09f4 d0b8 d29c 32b9
000000e0: ccaa d338 2dc5 78b8 100e 8e36 7c4a 38b9
000000f0: c396 10b9 00f5 3eb9 74e0 e538 7e61 1038
-8.107327e-05 -0.000105241976 5.081846e-05 -9.639258e-05 1.5417674e-05 -0.000110429224 3.2826643e-05 -4.27013e-05
0.00010672261 -0.0001582368 0.00014715231 -0.00010995153 8.183374e-05 -0.00016301562 -0.00012028788 0.00016934752
5.214183e-05 0.00014213915 -5.6552184e-05 0.00019489776 0.00010883112 0.00011086266 -0.00011854418 6.526914e-05
0.0001996517 -0.00010125658 9.720658e-05 -5.84137e-05 1.3713362e-05 0.00019121525 -3.490961e-05 -1.8179251e-05
0.00021392561 -0.00010536538 0.00015582566 -6.9179914e-05 2.0305566e-05 0.00011413973 9.391892e-05 0.00011045442
0.0002006455 -2.6847512e-05 -0.00020451596 6.678342e-05 -7.028134e-05 -3.0768755e-05 -1.3502999e-05 0.00015763374
1.9384463e-05 -0.00011045717 3.290457e-05 -6.8092646e-05 4.4437074e-06 6.147564e-05 -9.963668e-05 -0.00017033823
0.000100930774 -5.9311442e-05 4.233567e-06 -0.00017575355 -0.00013789073 -0.00018211082 0.000109613786 3.4423072e-05
